…
[32m[04/13 11:22:42 Tex-Tok]: [0m========================================================================================================================================================================================================
Layer (type:depth-idx)                             Input Shape               Output Shape              Param #                   Param %                   Kernel Shape              Mult-Adds
========================================================================================================================================================================================================
Textok                                             [1, 3, 256, 256]          [1, 3, 256, 256]          24,576                      0.01%                   --                        --
├─TexTokEncoder: 1-1                               --                        [1, 64, 1, 32]            222,720                     0.06%                   --                        --
│    └─Conv2d: 2-1                                 [1, 3, 256, 256]          [1, 768, 16, 16]          590,592                     0.15%                   [16, 16]                  151,191,552
│    └─Linear: 2-2                                 [1, 77, 768]              [1, 77, 768]              590,592                     0.15%                   --                        590,592
│    └─LayerNorm: 2-3                              [1, 366, 768]             [1, 366, 768]             1,536                       0.00%                   --                        1,536
│    └─ModuleList: 2-4                             --                        --                        --                             --                   --                        --
│    │    └─ResidualAttentionBlock: 3-1            [366, 1, 768]             [366, 1, 768]             --                             --                   --                        --
│    │    │    └─LayerNorm: 4-1                    [366, 1, 768]             [366, 1, 768]             1,536                       0.00%                   --                        562,176
│    │    │    └─MultiheadAttention: 4-2           [366, 1, 768]             [366, 1, 768]             2,362,368                   0.60%                   --                        --
│    │    │    └─LayerNorm: 4-3                    [366, 1, 768]             [366, 1, 768]             1,536                       0.00%                   --                        562,176
│    │    │    └─Sequential: 4-4                   [366, 1, 768]             [366, 1, 768]             --                             --                   --                        --
│    │    │    │    └─Linear: 5-1                  [366, 1, 768]             [366, 1, 3072]            2,362,368                   0.60%                   --                        864,626,688
│    │    │    │    └─GELU: 5-2                    [366, 1, 3072]            [366, 1, 3072]            --                             --                   --                        --
│    │    │    │    └─Linear: 5-3                  [366, 1, 3072]            [366, 1, 768]             2,360,064                   0.60%                   --                        863,783,424
│    │    └─ResidualAttentionBlock: 3-2            [366, 1, 768]             [366, 1, 768]             --                             --                   --                        --
│    │    │    └─LayerNorm: 4-5                    [366, 1, 768]             [366, 1, 768]             1,536                       0.00%                   --                        562,176
│    │    │    └─MultiheadAttention: 4-6           [366, 1, 768]             [366, 1, 768]             2,362,368                   0.60%                   --                        --
│    │    │    └─LayerNorm: 4-7                    [366, 1, 768]             [366, 1, 768]             1,536                       0.00%                   --                        562,176
│    │    │    └─Sequential: 4-8                   [366, 1, 768]             [366, 1, 768]             --                             --                   --                        --
│    │    │    │    └─Linear: 5-4                  [366, 1, 768]             [366, 1, 3072]            2,362,368                   0.60%                   --                        864,626,688
│    │    │    │    └─GELU: 5-5                    [366, 1, 3072]            [366, 1, 3072]            --                             --                   --                        --
│    │    │    │    └─Linear: 5-6                  [366, 1, 3072]            [366, 1, 768]             2,360,064                   0.60%                   --                        863,783,424
│    │    └─ResidualAttentionBlock: 3-3            [366, 1, 768]             [366, 1, 768]             --                             --                   --                        --
│    │    │    └─LayerNorm: 4-9                    [366, 1, 768]             [366, 1, 768]             1,536                       0.00%                   --                        562,176
│    │    │    └─MultiheadAttention: 4-10          [366, 1, 768]             [366, 1, 768]             2,362,368                   0.60%                   --                        --
│    │    │    └─LayerNorm: 4-11                   [366, 1, 768]             [366, 1, 768]             1,536                       0.00%                   --                        562,176
│    │    │    └─Sequential: 4-12                  [366, 1, 768]             [366, 1, 768]             --                             --                   --                        --
│    │    │    │    └─Linear: 5-7                  [366, 1, 768]             [366, 1, 3072]            2,362,368                   0.60%                   --                        864,626,688
│    │    │    │    └─GELU: 5-8                    [366, 1, 3072]            [366, 1, 3072]            --                             --                   --                        --
│    │    │    │    └─Linear: 5-9                  [366, 1, 3072]            [366, 1, 768]             2,360,064                   0.60%                   --                        863,783,424
│    │    └─ResidualAttentionBlock: 3-4            [366, 1, 768]             [366, 1, 768]             --                             --                   --                        --
│    │    │    └─LayerNorm: 4-13                   [366, 1, 768]             [366, 1, 768]             1,536                       0.00%                   --                        562,176
│    │    │    └─MultiheadAttention: 4-14          [366, 1, 768]             [366, 1, 768]             2,362,368                   0.60%                   --                        --
│    │    │    └─LayerNorm: 4-15                   [366, 1, 768]             [366, 1, 768]             1,536                       0.00%                   --                        562,176
│    │    │    └─Sequential: 4-16                  [366, 1, 768]             [366, 1, 768]             --                             --                   --                        --
│    │    │    │    └─Linear: 5-10                 [366, 1, 768]             [366, 1, 3072]            2,362,368                   0.60%                   --                        864,626,688
│    │    │    │    └─GELU: 5-11                   [366, 1, 3072]            [366, 1, 3072]            --                             --                   --                        --
│    │    │    │    └─Linear: 5-12                 [366, 1, 3072]            [366, 1, 768]             2,360,064                   0.60%                   --                        863,783,424
│    │    └─ResidualAttentionBlock: 3-5            [366, 1, 768]             [366, 1, 768]             --                             --                   --                        --
│    │    │    └─LayerNorm: 4-17                   [366, 1, 768]             [366, 1, 768]             1,536                       0.00%                   --                        562,176
│    │    │    └─MultiheadAttention: 4-18          [366, 1, 768]             [366, 1, 768]             2,362,368                   0.60%                   --                        --
│    │    │    └─LayerNorm: 4-19                   [366, 1, 768]             [366, 1, 768]             1,536                       0.00%                   --                        562,176
│    │    │    └─Sequential: 4-20                  [366, 1, 768]             [366, 1, 768]             --                             --                   --                        --
│    │    │    │    └─Linear: 5-13                 [366, 1, 768]             [366, 1, 3072]            2,362,368                   0.60%                   --                        864,626,688
│    │    │    │    └─GELU: 5-14                   [366, 1, 3072]            [366, 1, 3072]            --                             --                   --                        --
│    │    │    │    └─Linear: 5-15                 [366, 1, 3072]            [366, 1, 768]             2,360,064                   0.60%                   --                        863,783,424
│    │    └─ResidualAttentionBlock: 3-6            [366, 1, 768]             [366, 1, 768]             --                             --                   --                        --
│    │    │    └─LayerNorm: 4-21                   [366, 1, 768]             [366, 1, 768]             1,536                       0.00%                   --                        562,176
│    │    │    └─MultiheadAttention: 4-22          [366, 1, 768]             [366, 1, 768]             2,362,368                   0.60%                   --                        --
│    │    │    └─LayerNorm: 4-23                   [366, 1, 768]             [366, 1, 768]             1,536                       0.00%                   --                        562,176
│    │    │    └─Sequential: 4-24                  [366, 1, 768]             [366, 1, 768]             --                             --                   --                        --
│    │    │    │    └─Linear: 5-16                 [366, 1, 768]             [366, 1, 3072]            2,362,368                   0.60%                   --                        864,626,688
│    │    │    │    └─GELU: 5-17                   [366, 1, 3072]            [366, 1, 3072]            --                             --                   --                        --
│    │    │    │    └─Linear: 5-18                 [366, 1, 3072]            [366, 1, 768]             2,360,064                   0.60%                   --                        863,783,424
│    │    └─ResidualAttentionBlock: 3-7            [366, 1, 768]             [366, 1, 768]             --                             --                   --                        --
│    │    │    └─LayerNorm: 4-25                   [366, 1, 768]             [366, 1, 768]             1,536                       0.00%                   --                        562,176
│    │    │    └─MultiheadAttention: 4-26          [366, 1, 768]             [366, 1, 768]             2,362,368                   0.60%                   --                        --
│    │    │    └─LayerNorm: 4-27                   [366, 1, 768]             [366, 1, 768]             1,536                       0.00%                   --                        562,176
│    │    │    └─Sequential: 4-28                  [366, 1, 768]             [366, 1, 768]             --                             --                   --                        --
│    │    │    │    └─Linear: 5-19                 [366, 1, 768]             [366, 1, 3072]            2,362,368                   0.60%                   --                        864,626,688
│    │    │    │    └─GELU: 5-20                   [366, 1, 3072]            [366, 1, 3072]            --                             --                   --                        --
│    │    │    │    └─Linear: 5-21                 [366, 1, 3072]            [366, 1, 768]             2,360,064                   0.60%                   --                        863,783,424
│    │    └─ResidualAttentionBlock: 3-8            [366, 1, 768]             [366, 1, 768]             --                             --                   --                        --
│    │    │    └─LayerNorm: 4-29                   [366, 1, 768]             [366, 1, 768]             1,536                       0.00%                   --                        562,176
│    │    │    └─MultiheadAttention: 4-30          [366, 1, 768]             [366, 1, 768]             2,362,368                   0.60%                   --                        --
│    │    │    └─LayerNorm: 4-31                   [366, 1, 768]             [366, 1, 768]             1,536                       0.00%                   --                        562,176
│    │    │    └─Sequential: 4-32                  [366, 1, 768]             [366, 1, 768]             --                             --                   --                        --
│    │    │    │    └─Linear: 5-22                 [366, 1, 768]             [366, 1, 3072]            2,362,368                   0.60%                   --                        864,626,688
│    │    │    │    └─GELU: 5-23                   [366, 1, 3072]            [366, 1, 3072]            --                             --                   --                        --
│    │    │    │    └─Linear: 5-24                 [366, 1, 3072]            [366, 1, 768]             2,360,064                   0.60%                   --                        863,783,424
│    │    └─ResidualAttentionBlock: 3-9            [366, 1, 768]             [366, 1, 768]             --                             --                   --                        --
│    │    │    └─LayerNorm: 4-33                   [366, 1, 768]             [366, 1, 768]             1,536                       0.00%                   --                        562,176
│    │    │    └─MultiheadAttention: 4-34          [366, 1, 768]             [366, 1, 768]             2,362,368                   0.60%                   --                        --
│    │    │    └─LayerNorm: 4-35                   [366, 1, 768]             [366, 1, 768]             1,536                       0.00%                   --                        562,176
│    │    │    └─Sequential: 4-36                  [366, 1, 768]             [366, 1, 768]             --                             --                   --                        --
│    │    │    │    └─Linear: 5-25                 [366, 1, 768]             [366, 1, 3072]            2,362,368                   0.60%                   --                        864,626,688
│    │    │    │    └─GELU: 5-26                   [366, 1, 3072]            [366, 1, 3072]            --                             --                   --                        --
│    │    │    │    └─Linear: 5-27                 [366, 1, 3072]            [366, 1, 768]             2,360,064                   0.60%                   --                        863,783,424
│    │    └─ResidualAttentionBlock: 3-10           [366, 1, 768]             [366, 1, 768]             --                             --                   --                        --
│    │    │    └─LayerNorm: 4-37                   [366, 1, 768]             [366, 1, 768]             1,536                       0.00%                   --                        562,176
│    │    │    └─MultiheadAttention: 4-38          [366, 1, 768]             [366, 1, 768]             2,362,368                   0.60%                   --                        --
│    │    │    └─LayerNorm: 4-39                   [366, 1, 768]             [366, 1, 768]             1,536                       0.00%                   --                        562,176
│    │    │    └─Sequential: 4-40                  [366, 1, 768]             [366, 1, 768]             --                             --                   --                        --
│    │    │    │    └─Linear: 5-28                 [366, 1, 768]             [366, 1, 3072]            2,362,368                   0.60%                   --                        864,626,688
│    │    │    │    └─GELU: 5-29                   [366, 1, 3072]            [366, 1, 3072]            --                             --                   --                        --
│    │    │    │    └─Linear: 5-30                 [366, 1, 3072]            [366, 1, 768]             2,360,064                   0.60%                   --                        863,783,424
│    │    └─ResidualAttentionBlock: 3-11           [366, 1, 768]             [366, 1, 768]             --                             --                   --                        --
│    │    │    └─LayerNorm: 4-41                   [366, 1, 768]             [366, 1, 768]             1,536                       0.00%                   --                        562,176
│    │    │    └─MultiheadAttention: 4-42          [366, 1, 768]             [366, 1, 768]             2,362,368                   0.60%                   --                        --
│    │    │    └─LayerNorm: 4-43                   [366, 1, 768]             [366, 1, 768]             1,536                       0.00%                   --                        562,176
│    │    │    └─Sequential: 4-44                  [366, 1, 768]             [366, 1, 768]             --                             --                   --                        --
│    │    │    │    └─Linear: 5-31                 [366, 1, 768]             [366, 1, 3072]            2,362,368                   0.60%                   --                        864,626,688
│    │    │    │    └─GELU: 5-32                   [366, 1, 3072]            [366, 1, 3072]            --                             --                   --                        --
│    │    │    │    └─Linear: 5-33                 [366, 1, 3072]            [366, 1, 768]             2,360,064                   0.60%                   --                        863,783,424
│    │    └─ResidualAttentionBlock: 3-12           [366, 1, 768]             [366, 1, 768]             --                             --                   --                        --
│    │    │    └─LayerNorm: 4-45                   [366, 1, 768]             [366, 1, 768]             1,536                       0.00%                   --                        562,176
│    │    │    └─MultiheadAttention: 4-46          [366, 1, 768]             [366, 1, 768]             2,362,368                   0.60%                   --                        --
│    │    │    └─LayerNorm: 4-47                   [366, 1, 768]             [366, 1, 768]             1,536                       0.00%                   --                        562,176
│    │    │    └─Sequential: 4-48                  [366, 1, 768]             [366, 1, 768]             --                             --                   --                        --
│    │    │    │    └─Linear: 5-34                 [366, 1, 768]             [366, 1, 3072]            2,362,368                   0.60%                   --                        864,626,688
│    │    │    │    └─GELU: 5-35                   [366, 1, 3072]            [366, 1, 3072]            --                             --                   --                        --
│    │    │    │    └─Linear: 5-36                 [366, 1, 3072]            [366, 1, 768]             2,360,064                   0.60%                   --                        863,783,424
│    └─LayerNorm: 2-5                              [1, 32, 768]              [1, 32, 768]              1,536                       0.00%                   --                        1,536
│    └─Conv2d: 2-6                                 [1, 768, 32, 1]           [1, 64, 32, 1]            49,216                      0.01%                   [1, 1]                    1,574,912
├─VectorQuantizer: 1-2                             [1, 64, 1, 32]            [1, 64, 1, 32]            --                             --                   --                        --
│    └─Embedding: 2-7                              [32]                      [32, 64]                  524,288                     0.13%                   --                        16,777,216
├─TATiTokDecoder: 1-3                              [1, 64, 1, 32]            [1, 3, 256, 256]          376,832                     0.10%                   --                        --
│    └─Linear: 2-8                                 [1, 32, 64]               [1, 32, 1024]             66,560                      0.02%                   --                        66,560
│    └─Linear: 2-9                                 [1, 77, 768]              [1, 77, 1024]             787,456                     0.20%                   --                        787,456
│    └─LayerNorm: 2-10                             [1, 366, 1024]            [1, 366, 1024]            2,048                       0.00%                   --                        2,048
│    └─ModuleList: 2-11                            --                        --                        --                             --                   --                        --
│    │    └─ResidualAttentionBlock: 3-13           [366, 1, 1024]            [366, 1, 1024]            --                             --                   --                        --
│    │    │    └─LayerNorm: 4-49                   [366, 1, 1024]            [366, 1, 1024]            2,048                       0.00%                   --                        749,568
│    │    │    └─MultiheadAttention: 4-50          [366, 1, 1024]            [366, 1, 1024]            4,198,400                   1.07%                   --                        --
│    │    │    └─LayerNorm: 4-51                   [366, 1, 1024]            [366, 1, 1024]            2,048                       0.00%                   --                        749,568
│    │    │    └─Sequential: 4-52                  [366, 1, 1024]            [366, 1, 1024]            --                             --                   --                        --
│    │    │    │    └─Linear: 5-37                 [366, 1, 1024]            [366, 1, 4096]            4,198,400                   1.07%                   --                        1,536,614,400
│    │    │    │    └─GELU: 5-38                   [366, 1, 4096]            [366, 1, 4096]            --                             --                   --                        --
│    │    │    │    └─Linear: 5-39                 [366, 1, 4096]            [366, 1, 1024]            4,195,328                   1.07%                   --                        1,535,490,048
│    │    └─ResidualAttentionBlock: 3-14           [366, 1, 1024]            [366, 1, 1024]            --                             --                   --                        --
│    │    │    └─LayerNorm: 4-53                   [366, 1, 1024]            [366, 1, 1024]            2,048                       0.00%                   --                        749,568
│    │    │    └─MultiheadAttention: 4-54          [366, 1, 1024]            [366, 1, 1024]            4,198,400                   1.07%                   --                        --
│    │    │    └─LayerNorm: 4-55                   [366, 1, 1024]            [366, 1, 1024]            2,048                       0.00%                   --                        749,568
│    │    │    └─Sequential: 4-56                  [366, 1, 1024]            [366, 1, 1024]            --                             --                   --                        --
│    │    │    │    └─Linear: 5-40                 [366, 1, 1024]            [366, 1, 4096]            4,198,400                   1.07%                   --                        1,536,614,400
│    │    │    │    └─GELU: 5-41                   [366, 1, 4096]            [366, 1, 4096]            --                             --                   --                        --
│    │    │    │    └─Linear: 5-42                 [366, 1, 4096]            [366, 1, 1024]            4,195,328                   1.07%                   --                        1,535,490,048
│    │    └─ResidualAttentionBlock: 3-15           [366, 1, 1024]            [366, 1, 1024]            --                             --                   --                        --
│    │    │    └─LayerNorm: 4-57                   [366, 1, 1024]            [366, 1, 1024]            2,048                       0.00%                   --                        749,568
│    │    │    └─MultiheadAttention: 4-58          [366, 1, 1024]            [366, 1, 1024]            4,198,400                   1.07%                   --                        --
│    │    │    └─LayerNorm: 4-59                   [366, 1, 1024]            [366, 1, 1024]            2,048                       0.00%                   --                        749,568
│    │    │    └─Sequential: 4-60                  [366, 1, 1024]            [366, 1, 1024]            --                             --                   --                        --
│    │    │    │    └─Linear: 5-43                 [366, 1, 1024]            [366, 1, 4096]            4,198,400                   1.07%                   --                        1,536,614,400
│    │    │    │    └─GELU: 5-44                   [366, 1, 4096]            [366, 1, 4096]            --                             --                   --                        --
│    │    │    │    └─Linear: 5-45                 [366, 1, 4096]            [366, 1, 1024]            4,195,328                   1.07%                   --                        1,535,490,048
│    │    └─ResidualAttentionBlock: 3-16           [366, 1, 1024]            [366, 1, 1024]            --                             --                   --                        --
│    │    │    └─LayerNorm: 4-61                   [366, 1, 1024]            [366, 1, 1024]            2,048                       0.00%                   --                        749,568
│    │    │    └─MultiheadAttention: 4-62          [366, 1, 1024]            [366, 1, 1024]            4,198,400                   1.07%                   --                        --
│    │    │    └─LayerNorm: 4-63                   [366, 1, 1024]            [366, 1, 1024]            2,048                       0.00%                   --                        749,568
│    │    │    └─Sequential: 4-64                  [366, 1, 1024]            [366, 1, 1024]            --                             --                   --                        --
│    │    │    │    └─Linear: 5-46                 [366, 1, 1024]            [366, 1, 4096]            4,198,400                   1.07%                   --                        1,536,614,400
│    │    │    │    └─GELU: 5-47                   [366, 1, 4096]            [366, 1, 4096]            --                             --                   --                        --
│    │    │    │    └─Linear: 5-48                 [366, 1, 4096]            [366, 1, 1024]            4,195,328                   1.07%                   --                        1,535,490,048
│    │    └─ResidualAttentionBlock: 3-17           [366, 1, 1024]            [366, 1, 1024]            --                             --                   --                        --
│    │    │    └─LayerNorm: 4-65                   [366, 1, 1024]            [366, 1, 1024]            2,048                       0.00%                   --                        749,568
│    │    │    └─MultiheadAttention: 4-66          [366, 1, 1024]            [366, 1, 1024]            4,198,400                   1.07%                   --                        --
│    │    │    └─LayerNorm: 4-67                   [366, 1, 1024]            [366, 1, 1024]            2,048                       0.00%                   --                        749,568
│    │    │    └─Sequential: 4-68                  [366, 1, 1024]            [366, 1, 1024]            --                             --                   --                        --
│    │    │    │    └─Linear: 5-49                 [366, 1, 1024]            [366, 1, 4096]            4,198,400                   1.07%                   --                        1,536,614,400
│    │    │    │    └─GELU: 5-50                   [366, 1, 4096]            [366, 1, 4096]            --                             --                   --                        --
│    │    │    │    └─Linear: 5-51                 [366, 1, 4096]            [366, 1, 1024]            4,195,328                   1.07%                   --                        1,535,490,048
│    │    └─ResidualAttentionBlock: 3-18           [366, 1, 1024]            [366, 1, 1024]            --                             --                   --                        --
│    │    │    └─LayerNorm: 4-69                   [366, 1, 1024]            [366, 1, 1024]            2,048                       0.00%                   --                        749,568
│    │    │    └─MultiheadAttention: 4-70          [366, 1, 1024]            [366, 1, 1024]            4,198,400                   1.07%                   --                        --
│    │    │    └─LayerNorm: 4-71                   [366, 1, 1024]            [366, 1, 1024]            2,048                       0.00%                   --                        749,568
│    │    │    └─Sequential: 4-72                  [366, 1, 1024]            [366, 1, 1024]            --                             --                   --                        --
│    │    │    │    └─Linear: 5-52                 [366, 1, 1024]            [366, 1, 4096]            4,198,400                   1.07%                   --                        1,536,614,400
│    │    │    │    └─GELU: 5-53                   [366, 1, 4096]            [366, 1, 4096]            --                             --                   --                        --
│    │    │    │    └─Linear: 5-54                 [366, 1, 4096]            [366, 1, 1024]            4,195,328                   1.07%                   --                        1,535,490,048
│    │    └─ResidualAttentionBlock: 3-19           [366, 1, 1024]            [366, 1, 1024]            --                             --                   --                        --
│    │    │    └─LayerNorm: 4-73                   [366, 1, 1024]            [366, 1, 1024]            2,048                       0.00%                   --                        749,568
│    │    │    └─MultiheadAttention: 4-74          [366, 1, 1024]            [366, 1, 1024]            4,198,400                   1.07%                   --                        --
│    │    │    └─LayerNorm: 4-75                   [366, 1, 1024]            [366, 1, 1024]            2,048                       0.00%                   --                        749,568
│    │    │    └─Sequential: 4-76                  [366, 1, 1024]            [366, 1, 1024]            --                             --                   --                        --
│    │    │    │    └─Linear: 5-55                 [366, 1, 1024]            [366, 1, 4096]            4,198,400                   1.07%                   --                        1,536,614,400
│    │    │    │    └─GELU: 5-56                   [366, 1, 4096]            [366, 1, 4096]            --                             --                   --                        --
│    │    │    │    └─Linear: 5-57                 [366, 1, 4096]            [366, 1, 1024]            4,195,328                   1.07%                   --                        1,535,490,048
│    │    └─ResidualAttentionBlock: 3-20           [366, 1, 1024]            [366, 1, 1024]            --                             --                   --                        --
│    │    │    └─LayerNorm: 4-77                   [366, 1, 1024]            [366, 1, 1024]            2,048                       0.00%                   --                        749,568
│    │    │    └─MultiheadAttention: 4-78          [366, 1, 1024]            [366, 1, 1024]            4,198,400                   1.07%                   --                        --
│    │    │    └─LayerNorm: 4-79                   [366, 1, 1024]            [366, 1, 1024]            2,048                       0.00%                   --                        749,568
│    │    │    └─Sequential: 4-80                  [366, 1, 1024]            [366, 1, 1024]            --                             --                   --                        --
│    │    │    │    └─Linear: 5-58                 [366, 1, 1024]            [366, 1, 4096]            4,198,400                   1.07%                   --                        1,536,614,400
│    │    │    │    └─GELU: 5-59                   [366, 1, 4096]            [366, 1, 4096]            --                             --                   --                        --
│    │    │    │    └─Linear: 5-60                 [366, 1, 4096]            [366, 1, 1024]            4,195,328                   1.07%                   --                        1,535,490,048
│    │    └─ResidualAttentionBlock: 3-21           [366, 1, 1024]            [366, 1, 1024]            --                             --                   --                        --
│    │    │    └─LayerNorm: 4-81                   [366, 1, 1024]            [366, 1, 1024]            2,048                       0.00%                   --                        749,568
│    │    │    └─MultiheadAttention: 4-82          [366, 1, 1024]            [366, 1, 1024]            4,198,400                   1.07%                   --                        --
│    │    │    └─LayerNorm: 4-83                   [366, 1, 1024]            [366, 1, 1024]            2,048                       0.00%                   --                        749,568
│    │    │    └─Sequential: 4-84                  [366, 1, 1024]            [366, 1, 1024]            --                             --                   --                        --
│    │    │    │    └─Linear: 5-61                 [366, 1, 1024]            [366, 1, 4096]            4,198,400                   1.07%                   --                        1,536,614,400
│    │    │    │    └─GELU: 5-62                   [366, 1, 4096]            [366, 1, 4096]            --                             --                   --                        --
│    │    │    │    └─Linear: 5-63                 [366, 1, 4096]            [366, 1, 1024]            4,195,328                   1.07%                   --                        1,535,490,048
│    │    └─ResidualAttentionBlock: 3-22           [366, 1, 1024]            [366, 1, 1024]            --                             --                   --                        --
│    │    │    └─LayerNorm: 4-85                   [366, 1, 1024]            [366, 1, 1024]            2,048                       0.00%                   --                        749,568
│    │    │    └─MultiheadAttention: 4-86          [366, 1, 1024]            [366, 1, 1024]            4,198,400                   1.07%                   --                        --
│    │    │    └─LayerNorm: 4-87                   [366, 1, 1024]            [366, 1, 1024]            2,048                       0.00%                   --                        749,568
│    │    │    └─Sequential: 4-88                  [366, 1, 1024]            [366, 1, 1024]            --                             --                   --                        --
│    │    │    │    └─Linear: 5-64                 [366, 1, 1024]            [366, 1, 4096]            4,198,400                   1.07%                   --                        1,536,614,400
│    │    │    │    └─GELU: 5-65                   [366, 1, 4096]            [366, 1, 4096]            --                             --                   --                        --
│    │    │    │    └─Linear: 5-66                 [366, 1, 4096]            [366, 1, 1024]            4,195,328                   1.07%                   --                        1,535,490,048
│    │    └─ResidualAttentionBlock: 3-23           [366, 1, 1024]            [366, 1, 1024]            --                             --                   --                        --
│    │    │    └─LayerNorm: 4-89                   [366, 1, 1024]            [366, 1, 1024]            2,048                       0.00%                   --                        749,568
│    │    │    └─MultiheadAttention: 4-90          [366, 1, 1024]            [366, 1, 1024]            4,198,400                   1.07%                   --                        --
│    │    │    └─LayerNorm: 4-91                   [366, 1, 1024]            [366, 1, 1024]            2,048                       0.00%                   --                        749,568
│    │    │    └─Sequential: 4-92                  [366, 1, 1024]            [366, 1, 1024]            --                             --                   --                        --
│    │    │    │    └─Linear: 5-67                 [366, 1, 1024]            [366, 1, 4096]            4,198,400                   1.07%                   --                        1,536,614,400
│    │    │    │    └─GELU: 5-68                   [366, 1, 4096]            [366, 1, 4096]            --                             --                   --                        --
│    │    │    │    └─Linear: 5-69                 [366, 1, 4096]            [366, 1, 1024]            4,195,328                   1.07%                   --                        1,535,490,048
│    │    └─ResidualAttentionBlock: 3-24           [366, 1, 1024]            [366, 1, 1024]            --                             --                   --                        --
│    │    │    └─LayerNorm: 4-93                   [366, 1, 1024]            [366, 1, 1024]            2,048                       0.00%                   --                        749,568
│    │    │    └─MultiheadAttention: 4-94          [366, 1, 1024]            [366, 1, 1024]            4,198,400                   1.07%                   --                        --
│    │    │    └─LayerNorm: 4-95                   [366, 1, 1024]            [366, 1, 1024]            2,048                       0.00%                   --                        749,568
│    │    │    └─Sequential: 4-96                  [366, 1, 1024]            [366, 1, 1024]            --                             --                   --                        --
│    │    │    │    └─Linear: 5-70                 [366, 1, 1024]            [366, 1, 4096]            4,198,400                   1.07%                   --                        1,536,614,400
│    │    │    │    └─GELU: 5-71                   [366, 1, 4096]            [366, 1, 4096]            --                             --                   --                        --
│    │    │    │    └─Linear: 5-72                 [366, 1, 4096]            [366, 1, 1024]            4,195,328                   1.07%                   --                        1,535,490,048
│    │    └─ResidualAttentionBlock: 3-25           [366, 1, 1024]            [366, 1, 1024]            --                             --                   --                        --
│    │    │    └─LayerNorm: 4-97                   [366, 1, 1024]            [366, 1, 1024]            2,048                       0.00%                   --                        749,568
│    │    │    └─MultiheadAttention: 4-98          [366, 1, 1024]            [366, 1, 1024]            4,198,400                   1.07%                   --                        --
│    │    │    └─LayerNorm: 4-99                   [366, 1, 1024]            [366, 1, 1024]            2,048                       0.00%                   --                        749,568
│    │    │    └─Sequential: 4-100                 [366, 1, 1024]            [366, 1, 1024]            --                             --                   --                        --
│    │    │    │    └─Linear: 5-73                 [366, 1, 1024]            [366, 1, 4096]            4,198,400                   1.07%                   --                        1,536,614,400
│    │    │    │    └─GELU: 5-74                   [366, 1, 4096]            [366, 1, 4096]            --                             --                   --                        --
│    │    │    │    └─Linear: 5-75                 [366, 1, 4096]            [366, 1, 1024]            4,195,328                   1.07%                   --                        1,535,490,048
│    │    └─ResidualAttentionBlock: 3-26           [366, 1, 1024]            [366, 1, 1024]            --                             --                   --                        --
│    │    │    └─LayerNorm: 4-101                  [366, 1, 1024]            [366, 1, 1024]            2,048                       0.00%                   --                        749,568
│    │    │    └─MultiheadAttention: 4-102         [366, 1, 1024]            [366, 1, 1024]            4,198,400                   1.07%                   --                        --
│    │    │    └─LayerNorm: 4-103                  [366, 1, 1024]            [366, 1, 1024]            2,048                       0.00%                   --                        749,568
│    │    │    └─Sequential: 4-104                 [366, 1, 1024]            [366, 1, 1024]            --                             --                   --                        --
│    │    │    │    └─Linear: 5-76                 [366, 1, 1024]            [366, 1, 4096]            4,198,400                   1.07%                   --                        1,536,614,400
│    │    │    │    └─GELU: 5-77                   [366, 1, 4096]            [366, 1, 4096]            --                             --                   --                        --
│    │    │    │    └─Linear: 5-78                 [366, 1, 4096]            [366, 1, 1024]            4,195,328                   1.07%                   --                        1,535,490,048
│    │    └─ResidualAttentionBlock: 3-27           [366, 1, 1024]            [366, 1, 1024]            --                             --                   --                        --
│    │    │    └─LayerNorm: 4-105                  [366, 1, 1024]            [366, 1, 1024]            2,048                       0.00%                   --                        749,568
│    │    │    └─MultiheadAttention: 4-106         [366, 1, 1024]            [366, 1, 1024]            4,198,400                   1.07%                   --                        --
│    │    │    └─LayerNorm: 4-107                  [366, 1, 1024]            [366, 1, 1024]            2,048                       0.00%                   --                        749,568
│    │    │    └─Sequential: 4-108                 [366, 1, 1024]            [366, 1, 1024]            --                             --                   --                        --
│    │    │    │    └─Linear: 5-79                 [366, 1, 1024]            [366, 1, 4096]            4,198,400                   1.07%                   --                        1,536,614,400
│    │    │    │    └─GELU: 5-80                   [366, 1, 4096]            [366, 1, 4096]            --                             --                   --                        --
│    │    │    │    └─Linear: 5-81                 [366, 1, 4096]            [366, 1, 1024]            4,195,328                   1.07%                   --                        1,535,490,048
│    │    └─ResidualAttentionBlock: 3-28           [366, 1, 1024]            [366, 1, 1024]            --                             --                   --                        --
│    │    │    └─LayerNorm: 4-109                  [366, 1, 1024]            [366, 1, 1024]            2,048                       0.00%                   --                        749,568
│    │    │    └─MultiheadAttention: 4-110         [366, 1, 1024]            [366, 1, 1024]            4,198,400                   1.07%                   --                        --
│    │    │    └─LayerNorm: 4-111                  [366, 1, 1024]            [366, 1, 1024]            2,048                       0.00%                   --                        749,568
│    │    │    └─Sequential: 4-112                 [366, 1, 1024]            [366, 1, 1024]            --                             --                   --                        --
│    │    │    │    └─Linear: 5-82                 [366, 1, 1024]            [366, 1, 4096]            4,198,400                   1.07%                   --                        1,536,614,400
│    │    │    │    └─GELU: 5-83                   [366, 1, 4096]            [366, 1, 4096]            --                             --                   --                        --
│    │    │    │    └─Linear: 5-84                 [366, 1, 4096]            [366, 1, 1024]            4,195,328                   1.07%                   --                        1,535,490,048
│    │    └─ResidualAttentionBlock: 3-29           [366, 1, 1024]            [366, 1, 1024]            --                             --                   --                        --
│    │    │    └─LayerNorm: 4-113                  [366, 1, 1024]            [366, 1, 1024]            2,048                       0.00%                   --                        749,568
│    │    │    └─MultiheadAttention: 4-114         [366, 1, 1024]            [366, 1, 1024]            4,198,400                   1.07%                   --                        --
│    │    │    └─LayerNorm: 4-115                  [366, 1, 1024]            [366, 1, 1024]            2,048                       0.00%                   --                        749,568
│    │    │    └─Sequential: 4-116                 [366, 1, 1024]            [366, 1, 1024]            --                             --                   --                        --
│    │    │    │    └─Linear: 5-85                 [366, 1, 1024]            [366, 1, 4096]            4,198,400                   1.07%                   --                        1,536,614,400
│    │    │    │    └─GELU: 5-86                   [366, 1, 4096]            [366, 1, 4096]            --                             --                   --                        --
│    │    │    │    └─Linear: 5-87                 [366, 1, 4096]            [366, 1, 1024]            4,195,328                   1.07%                   --                        1,535,490,048
│    │    └─ResidualAttentionBlock: 3-30           [366, 1, 1024]            [366, 1, 1024]            --                             --                   --                        --
│    │    │    └─LayerNorm: 4-117                  [366, 1, 1024]            [366, 1, 1024]            2,048                       0.00%                   --                        749,568
│    │    │    └─MultiheadAttention: 4-118         [366, 1, 1024]            [366, 1, 1024]            4,198,400                   1.07%                   --                        --
│    │    │    └─LayerNorm: 4-119                  [366, 1, 1024]            [366, 1, 1024]            2,048                       0.00%                   --                        749,568
│    │    │    └─Sequential: 4-120                 [366, 1, 1024]            [366, 1, 1024]            --                             --                   --                        --
│    │    │    │    └─Linear: 5-88                 [366, 1, 1024]            [366, 1, 4096]            4,198,400                   1.07%                   --                        1,536,614,400
│    │    │    │    └─GELU: 5-89                   [366, 1, 4096]            [366, 1, 4096]            --                             --                   --                        --
│    │    │    │    └─Linear: 5-90                 [366, 1, 4096]            [366, 1, 1024]            4,195,328                   1.07%                   --                        1,535,490,048
│    │    └─ResidualAttentionBlock: 3-31           [366, 1, 1024]            [366, 1, 1024]            --                             --                   --                        --
│    │    │    └─LayerNorm: 4-121                  [366, 1, 1024]            [366, 1, 1024]            2,048                       0.00%                   --                        749,568
│    │    │    └─MultiheadAttention: 4-122         [366, 1, 1024]            [366, 1, 1024]            4,198,400                   1.07%                   --                        --
│    │    │    └─LayerNorm: 4-123                  [366, 1, 1024]            [366, 1, 1024]            2,048                       0.00%                   --                        749,568
│    │    │    └─Sequential: 4-124                 [366, 1, 1024]            [366, 1, 1024]            --                             --                   --                        --
│    │    │    │    └─Linear: 5-91                 [366, 1, 1024]            [366, 1, 4096]            4,198,400                   1.07%                   --                        1,536,614,400
│    │    │    │    └─GELU: 5-92                   [366, 1, 4096]            [366, 1, 4096]            --                             --                   --                        --
│    │    │    │    └─Linear: 5-93                 [366, 1, 4096]            [366, 1, 1024]            4,195,328                   1.07%                   --                        1,535,490,048
│    │    └─ResidualAttentionBlock: 3-32           [366, 1, 1024]            [366, 1, 1024]            --                             --                   --                        --
│    │    │    └─LayerNorm: 4-125                  [366, 1, 1024]            [366, 1, 1024]            2,048                       0.00%                   --                        749,568
│    │    │    └─MultiheadAttention: 4-126         [366, 1, 1024]            [366, 1, 1024]            4,198,400                   1.07%                   --                        --
│    │    │    └─LayerNorm: 4-127                  [366, 1, 1024]            [366, 1, 1024]            2,048                       0.00%                   --                        749,568
│    │    │    └─Sequential: 4-128                 [366, 1, 1024]            [366, 1, 1024]            --                             --                   --                        --
│    │    │    │    └─Linear: 5-94                 [366, 1, 1024]            [366, 1, 4096]            4,198,400                   1.07%                   --                        1,536,614,400
│    │    │    │    └─GELU: 5-95                   [366, 1, 4096]            [366, 1, 4096]            --                             --                   --                        --
│    │    │    │    └─Linear: 5-96                 [366, 1, 4096]            [366, 1, 1024]            4,195,328                   1.07%                   --                        1,535,490,048
│    │    └─ResidualAttentionBlock: 3-33           [366, 1, 1024]            [366, 1, 1024]            --                             --                   --                        --
│    │    │    └─LayerNorm: 4-129                  [366, 1, 1024]            [366, 1, 1024]            2,048                       0.00%                   --                        749,568
│    │    │    └─MultiheadAttention: 4-130         [366, 1, 1024]            [366, 1, 1024]            4,198,400                   1.07%                   --                        --
│    │    │    └─LayerNorm: 4-131                  [366, 1, 1024]            [366, 1, 1024]            2,048                       0.00%                   --                        749,568
│    │    │    └─Sequential: 4-132                 [366, 1, 1024]            [366, 1, 1024]            --                             --                   --                        --
│    │    │    │    └─Linear: 5-97                 [366, 1, 1024]            [366, 1, 4096]            4,198,400                   1.07%                   --                        1,536,614,400
│    │    │    │    └─GELU: 5-98                   [366, 1, 4096]            [366, 1, 4096]            --                             --                   --                        --
│    │    │    │    └─Linear: 5-99                 [366, 1, 4096]            [366, 1, 1024]            4,195,328                   1.07%                   --                        1,535,490,048
│    │    └─ResidualAttentionBlock: 3-34           [366, 1, 1024]            [366, 1, 1024]            --                             --                   --                        --
│    │    │    └─LayerNorm: 4-133                  [366, 1, 1024]            [366, 1, 1024]            2,048                       0.00%                   --                        749,568
│    │    │    └─MultiheadAttention: 4-134         [366, 1, 1024]            [366, 1, 1024]            4,198,400                   1.07%                   --                        --
│    │    │    └─LayerNorm: 4-135                  [366, 1, 1024]            [366, 1, 1024]            2,048                       0.00%                   --                        749,568
│    │    │    └─Sequential: 4-136                 [366, 1, 1024]            [366, 1, 1024]            --                             --                   --                        --
│    │    │    │    └─Linear: 5-100                [366, 1, 1024]            [366, 1, 4096]            4,198,400                   1.07%                   --                        1,536,614,400
│    │    │    │    └─GELU: 5-101                  [366, 1, 4096]            [366, 1, 4096]            --                             --                   --                        --
│    │    │    │    └─Linear: 5-102                [366, 1, 4096]            [366, 1, 1024]            4,195,328                   1.07%                   --                        1,535,490,048
│    │    └─ResidualAttentionBlock: 3-35           [366, 1, 1024]            [366, 1, 1024]            --                             --                   --                        --
│    │    │    └─LayerNorm: 4-137                  [366, 1, 1024]            [366, 1, 1024]            2,048                       0.00%                   --                        749,568
│    │    │    └─MultiheadAttention: 4-138         [366, 1, 1024]            [366, 1, 1024]            4,198,400                   1.07%                   --                        --
│    │    │    └─LayerNorm: 4-139                  [366, 1, 1024]            [366, 1, 1024]            2,048                       0.00%                   --                        749,568
│    │    │    └─Sequential: 4-140                 [366, 1, 1024]            [366, 1, 1024]            --                             --                   --                        --
│    │    │    │    └─Linear: 5-103                [366, 1, 1024]            [366, 1, 4096]            4,198,400                   1.07%                   --                        1,536,614,400
│    │    │    │    └─GELU: 5-104                  [366, 1, 4096]            [366, 1, 4096]            --                             --                   --                        --
│    │    │    │    └─Linear: 5-105                [366, 1, 4096]            [366, 1, 1024]            4,195,328                   1.07%                   --                        1,535,490,048
│    │    └─ResidualAttentionBlock: 3-36           [366, 1, 1024]            [366, 1, 1024]            --                             --                   --                        --
│    │    │    └─LayerNorm: 4-141                  [366, 1, 1024]            [366, 1, 1024]            2,048                       0.00%                   --                        749,568
│    │    │    └─MultiheadAttention: 4-142         [366, 1, 1024]            [366, 1, 1024]            4,198,400                   1.07%                   --                        --
│    │    │    └─LayerNorm: 4-143                  [366, 1, 1024]            [366, 1, 1024]            2,048                       0.00%                   --                        749,568
│    │    │    └─Sequential: 4-144                 [366, 1, 1024]            [366, 1, 1024]            --                             --                   --                        --
│    │    │    │    └─Linear: 5-106                [366, 1, 1024]            [366, 1, 4096]            4,198,400                   1.07%                   --                        1,536,614,400
│    │    │    │    └─GELU: 5-107                  [366, 1, 4096]            [366, 1, 4096]            --                             --                   --                        --
│    │    │    │    └─Linear: 5-108                [366, 1, 4096]            [366, 1, 1024]            4,195,328                   1.07%                   --                        1,535,490,048
│    └─LayerNorm: 2-12                             [1, 256, 1024]            [1, 256, 1024]            2,048                       0.00%                   --                        2,048
│    └─Sequential: 2-13                            [1, 1024, 16, 16]         [1, 3, 256, 256]          --                             --                   --                        --
│    │    └─Conv2d: 3-37                           [1, 1024, 16, 16]         [1, 768, 16, 16]          787,200                     0.20%                   [1, 1]                    201,523,200
│    │    └─Rearrange: 3-38                        [1, 768, 16, 16]          [1, 3, 256, 256]          --                             --                   --                        --
│    └─Conv2d: 2-14                                [1, 3, 256, 256]          [1, 3, 256, 256]          84                          0.00%                   [3, 3]                    5,505,024
========================================================================================================================================================================================================
Total params: 391,391,124
Trainable params: 391,391,124
Non-trainable params: 0
Total mult-adds (G): 94.90
========================================================================================================================================================================================================
…
